…
        "    metrics=['accuracy'],\n",
        "  ) \n",
        "  return model\n",
        "\n",
        "\n",
        "model = my_cnn()\n",
        "model.summary()"
      ],
      "execution_count": null,
      "outputs": [
        {
          "output_type": "stream",
          "text": [
            "Model: \"CNN_Model\"\n",
            "_________________________________________________________________\n",
            "Layer (type)                 Output Shape              Param #   \n",
            "=================================================================\n",
            "Reshape_Input (Reshape)      (None, 257, 97, 1)        0         \n",
            "_________________________________________________________________\n",
            "Conv_1 (Conv2D)              (None, 257, 97, 12)       120       \n",
            "_________________________________________________________________\n",
            "Batch_Norm_1 (BatchNormaliza (None, 257, 97, 12)       48        \n",
            "_________________________________________________________________\n",
            "ReLU_1 (ReLU)                (None, 257, 97, 12)       0         \n",
            "_________________________________________________________________\n",
            "MaxPool_1 (MaxPooling2D)     (None, 129, 49, 12)       0         \n",
            "_________________________________________________________________\n",
            "Conv_2 (Conv2D)              (None, 129, 49, 24)       2616      \n",
            "_________________________________________________________________\n",
            "Batch_Norm_2 (BatchNormaliza (None, 129, 49, 24)       96        \n",
            "_________________________________________________________________\n",
            "ReLU_2 (ReLU)                (None, 129, 49, 24)       0         \n",
            "_________________________________________________________________\n",
            "MaxPool_2 (MaxPooling2D)     (None, 65, 25, 24)        0         \n",
            "_________________________________________________________________\n",
            "Conv_3 (Conv2D)              (None, 65, 25, 48)        10416     \n",
            "_________________________________________________________________\n",
            "Batch_Norm_3 (BatchNormaliza (None, 65, 25, 48)        192       \n",
            "_________________________________________________________________\n",
            "ReLU_3 (ReLU)                (None, 65, 25, 48)        0         \n",
            "_________________________________________________________________\n",
            "MaxPool_3 (MaxPooling2D)     (None, 33, 13, 48)        0         \n",
            "_________________________________________________________________\n",
            "Conv_4 (Conv2D)              (None, 33, 13, 48)        20784     \n",
            "_________________________________________________________________\n",
            "Batch_Norm_4 (BatchNormaliza (None, 33, 13, 48)        192       \n",
            "_________________________________________________________________\n",
            "ReLU_4 (ReLU)                (None, 33, 13, 48)        0         \n",
            "_________________________________________________________________\n",
            "Conv_5 (Conv2D)              (None, 33, 13, 48)        20784     \n",
            "_________________________________________________________________\n",
            "Batch_Norm_5 (BatchNormaliza (None, 33, 13, 48)        192       \n",
            "_________________________________________________________________\n",
            "ReLU_5 (ReLU)                (None, 33, 13, 48)        0         \n",
            "_________________________________________________________________\n",
            "Global_MaxPool (GlobalMaxPoo (None, 48)                0         \n",
            "_________________________________________________________________\n",
            "Dropout (Dropout)            (None, 48)                0         \n",
            "_________________________________________________________________\n",
            "Dense (Dense)                (None, 48)                2352      \n",
            "_________________________________________________________________\n",
            "Dense_SoftMax_1 (Dense)      (None, 12)                588       \n",
            "=================================================================\n",
            "Total params: 58,380\n",
            "Trainable params: 58,020\n",
            "Non-trainable params: 360\n",
            "_________________________________________________________________\n"
          ],
          "name": "stdout"
        }
      ]
    },
    {
      "cell_type": "markdown",
…
